backend/multi_stock_model_dense.tflite (tflite, 26584 bytes, 5 tensors)

arith.constant f4 [1, 32]
000000 ee 5a f8 3d fe 6e 24 3e c8 e6 14 3e 5f 1b 89 3e
       0.121267185 0.16057965 0.14541161 0.26778695
000010 53 40 49 3d 4c ce ce be bd 92 17 3e ec ad db 3d
       0.04913361 -0.40391767 0.1480207 0.10726532
000020 6b 22 21 3e be 44 d2 bd 7e be 20 3e 6e 68 00 be
       0.15735786 -0.10267018 0.15697667 -0.12539837
000030 f8 1c e3 bd 45 7c 6b be f8 52 8d 3e 40 88 8a 3e
       -0.1108951 -0.22996624 0.27602363 0.27057076
000040 9a 7b a5 3d ce e6 94 bd 5a 32 b5 3e c6 dd b2 3d
       0.08080216 -0.07270585 0.35389978 0.08733706
000050 b9 d4 b8 3e 73 fc 82 3e d9 e3 78 3e 86 a6 51 3e
       0.36099795 0.25583228 0.24305667 0.2047368
000060 7c f9 53 3e df 72 ea bd ad 1b 71 3e 38 0f 72 3e
       0.2070064 -0.11447691 0.23545714 0.23638618
000070 27 94 7d 3e ea 1f 4e 3e 74 5f eb bc 18 54 32 be
       0.24763547 0.20129362 -0.028732039 -0.17414892

arith.constant1 f4 [32, 64]
000000 41 14 01 be fb 0b ae bd 44 f8 3e be 4b 30 45 ba
       -0.12605383 -0.08498379 -0.18649393 -0.000752215
000010 b2 bb ef bc 92 d4 91 be 98 09 e9 3d 29 4a 0b be
       -0.029264305 -0.2848249 0.11378783 -0.13602509
000020 0a b8 30 be 2f 91 ea bd 47 d3 c6 bd 29 e6 68 bd
       -0.17257705 -0.11453473 -0.09708267 -0.056860123
000030 10 9c 26 be 63 13 8e bd cf 71 c0 3d fe 3e 3d bd
       -0.1627047 -0.069372915 0.09396707 -0.046202652
000040 03 d4 f2 bc f8 cb 82 3d 15 8b c9 bc f1 b9 0f bd
       -0.02964211 0.0638656 -0.024602452 -0.035089437
000050 03 04 c7 bd cb 3b 22 3e 61 e5 a5 bd 67 a2 9b 3d
       -0.09717562 0.15843122 -0.08100391 0.07599335
000060 6a 83 da 3d 25 6a fd bd 65 4c 01 3d ce 9c 32 be
       0.106695965 -0.12373761 0.031566996 -0.17442629
000070 2d 6f 9e 3d 56 5d 82 3e 30 5a 70 3a 7e 4e 1c 3e
       0.07736049 0.25461835 0.00091687124 0.15264317
000080 73 95 79 be ba 88 88 be 8f e0 19 be 5f 27 84 3d
       -0.24373417 -0.26666814 -0.15027069 0.06452822
000090 c3 80 0a be 8a 84 25 3e c6 6f 08 bc 7b 23 45 be
       -0.13525681 0.16163841 -0.00832743 -0.19251816
0000a0 47 40 e9 bd 06 08 01 be c7 06 c1 3c 42 d7 4a be
       -0.11389213 -0.12600717 0.023562802 -0.19808677
0000b0 52 ab 17 be 8d d9 94 3d de 70 4f 3e d2 61 09 be
       -0.14811447 0.07268057 0.20257899 -0.13416222
0000c0 f7 c8 c4 3d aa c6 ba bd 5e 7e e0 3d e6 4c 47 3e
       0.096086435 -0.091199234 0.10961603 0.19462928
0000d0 ca e9 1b 3e a1 6d 36 3e 8d 84 37 3d 66 8c 1c 3e
       0.15225902 0.17815258 0.044804145 0.15287933
0000e0 d9 db 6e 3e d8 cc 37 3e a3 59 df bd 2a de e3 3d
       0.23326053 0.17949235 -0.10905769 0.11126359
0000f0 dd c3 30 be af 85 17 be de b1 08 be e2 ab 5c 3e
       -0.17262216 -0.1479709 -0.13349101 0.21549943
000100 f7 a5 6f 3e 19 6d bc 3d 27 db a8 3d 89 8a af 3d
       0.23403154 0.09200496 0.08244925 0.08571345
000110 86 9a 41 bd b6 db 1e be a7 cd 72 3e 74 8a 3a 3e
       -0.047266506 -0.155135 0.23711263 0.18216878
000120 91 39 d6 3b 04 09 3b be aa ba 55 be 79 ae cc bd
       0.006537624 -0.18265158 -0.20871988 -0.099942155
000130 71 77 60 be 0e fb 2e 3e eb 95 c0 3d 3d 04 4f be
       -0.21920563 0.17087957 0.094035946 -0.2021646
000140 92 e2 88 bd 73 40 72 3d b5 af 37 3e e8 41 55 bd
       -0.0668384 0.059143495 0.1793812 -0.052064806
000150 b5 ca 83 3e d3 b0 16 be a0 4f c9 3d 1e 00 32 be
       0.2574059 -0.1471589 0.098296404 -0.17382857
000160 91 63 77 3e 8d 43 0f be 04 ec 0d bd 84 54 31 3d
       0.24159075 -0.13990612 -0.03464891 0.04329349
000170 c2 5b 4a 3e 49 3a d6 bd c9 fc 1a 3d b4 c7 5f be
       0.19761565 -0.10460336 0.03783873 -0.21853524
000180 43 f2 47 bc 2c e3 2e 3e ef b7 0f be 3f d6 84 be
       -0.012203756 0.17078847 -0.14035009 -0.25944707
000190 8e 3c cf 3c 9d b0 13 be cc c3 ba 3d 13 43 f6 bd
       0.02529743 -0.14422841 0.091193765 -0.12024512
0001a0 82 fb 64 be 12 99 6e be eb 8c 41 3e 15 b4 50 3d
       -0.22361568 -0.23300579 0.18901412 0.05095299
0001b0 50 fa 38 3e cf f2 00 be b5 38 c6 bd ac f7 83 be
       0.18064237 -0.12592624 -0.09678785 -0.25774896
0001c0 1a 81 55 3d 2f 9f e6 bd 52 2d aa 3c da 3f 96 3e
       0.052125074 -0.112608306 0.020773564 0.2934559
0001d0 1f 2a c3 bd 89 e7 33 3e 9f 0b 22 be d0 82 89 3c
       -0.09529518 0.17568792 -0.15824746 0.01678601
0001e0 7f 01 23 3e 38 42 cc 3d 23 eb 94 bb 08 fd e6 bc
       0.1591854 0.09973568 -0.004544632 -0.028196827
0001f0 0f 30 1d 3e 3c 77 a2 3d 2b 84 91 3d fd 96 85 3c
       0.15350364 0.079328984 0.07105287 0.016307348
000200 59 ab b3 3d ba df 06 bd a6 cc 8f 3e 4d 25 0c 3e
       0.08772916 -0.032928206 0.28085822 0.13686104
000210 e7 04 87 3d 6a f3 fe bd 2f 1b 42 be 3c 0e 29 be
       0.06592732 -0.12448771 -0.18955682 -0.16509336
000220 8d 02 ce bd 4e 67 47 be 7c 21 b8 bd 16 53 2d 3e
       -0.1005908 -0.19473001 -0.08990762 0.16926226
000230 6c 31 51 3c 1e 18 4b be 6b 21 c7 3c 9a cf 16 be
       0.012768131 -0.19833419 0.024307927 -0.14727631
000240 41 48 9e bd 5a 0e cb bd 4b 92 9e be 08 86 5a bd
       -0.07728625 -0.09914847 -0.30970988 -0.05335048
000250 a7 7c 19 3e 9c 00 df bc 8d 3c 14 be 03 d4 80 be
       0.14988957 -0.02722197 -0.14476223 -0.25161752
000260 ee 03 ae bd 17 50 38 3d 80 f9 b1 bd bf 42 3f bc
       -0.08496843 0.044998255 -0.086901665 -0.011673628
000270 aa cc d9 3b 62 fe fb bd a0 7d 86 3d b1 04 82 bd
       0.0066467123 -0.12304379 0.0656693 -0.06348551
000280 c3 3b 02 be 24 21 66 be 4d 22 6f 3c ee 85 24 bd
       -0.1271811 -0.2247358 0.01459558 -0.040166788
000290 a5 c4 2b 3e fe 90 47 be ae d7 91 bc b3 2a 1b 3e
       0.16774233 -0.19488904 -0.01780304 0.15153007
0002a0 76 1f 89 3d 79 e0 fd bd 2c b9 9a 3c fe fb 87 bc
       0.06695454 -0.123963304 0.018887125 -0.016599651
0002b0 37 90 be 3b 05 29 b5 3c 37 31 37 3e 82 a2 30 be
       0.0058155316 0.022114286 0.17889868 -0.17249492
0002c0 a6 e9 b2 bc 94 0b 59 be ec 5f 75 3c 7f 9a 80 3e
       -0.021839928 -0.21195823 0.014976483 0.2511787
0002d0 b1 d0 62 3e 81 d4 9f 3c 2f 70 0c 3d 7b 47 1b 3e
       0.22149922 0.01951051 0.034286674 0.15163986
0002e0 fc fe 1e be dd 55 f5 3d df d2 07 3e 09 3c c7 bd
       -0.15526956 0.11979268 0.13264035 -0.09728248
0002f0 37 e7 65 be fd 54 bf 3c 5e 1a 6a bd 0f c3 35 be
       -0.22451483 0.023355955 -0.057154052 -0.1775019
000300 fe b4 4f 3e 58 4f 91 3e 09 96 54 3e 83 1a 71 bd
       0.20283887 0.28380847 0.20760359 -0.058863174
000310 e5 8d d1 bd dc 22 47 bb 82 55 d9 3d 35 f2 e8 bd
       -0.10232142 -0.0030385768 0.106120124 -0.11374322
000320 f3 30 f4 3d c9 4b 70 3d e1 af a8 3e ba 53 bd bd
       0.11923399 0.058666024 0.32946685 -0.09244485
000330 d6 4d a0 3c 54 40 e5 bd 42 c1 10 3e 1f f1 b0 be
       0.019568365 -0.1119391 0.14136222 -0.3455896
000340 ef 1c 73 3d f5 d0 a7 3d c9 b7 4c be a6 51 eb bc
       0.059353765 0.08194152 -0.19991983 -0.028725456
000350 d1 f1 d1 3c d1 a8 aa bd 66 29 b4 3d 40 4e 88 3d
       0.025628002 -0.083329804 0.087969586 0.0665555
000360 c9 3f 02 bd e1 9b 0d be d2 61 86 3d 08 e2 1b be
       -0.03179911 -0.13828994 0.065616265 -0.15222943
000370 bc bb 89 be 9b a1 2f bd b3 3b fa 3d b4 75 3f 3d
       -0.26901042 -0.04287873 0.12218418 0.04674311
000380 56 0e 5a be 59 59 0b 3e 01 e7 de 3d 00 c7 35 be
       -0.21294531 0.13608302 0.10883904 -0.17751694
000390 12 88 1e bd 83 7b d1 3d a6 a5 09 bd 88 b1 80 bd
       -0.038703986 0.10228636 -0.03360524 -0.062838614
0003a0 ba 48 5a 3e d1 cf 06 3e d5 a4 77 3e 6a 85 0a bd
       0.21316805 0.13165213 0.24183972 -0.03381864
0003b0 35 87 14 be e9 1b 72 be 27 f7 d2 bd f6 89 75 be
       -0.14504702 -0.2364346 -0.10301047 -0.23978409
0003c0 a0 c3 a3 be c5 8e 02 be c2 a0 19 be b7 38 a2 3e
       -0.31985188 -0.12749775 -0.1500273 0.31683895
0003d0 41 58 85 3e 77 90 9d be f2 3d 29 3e e8 80 ad bd
       0.26043895 -0.3077428 0.16527537 -0.084718525
0003e0 c7 3c e6 3d 7f 89 dc 3d 48 d3 00 3c 0c e5 a0 bc
       0.11242061 0.10768413 0.007862873 -0.019640468
0003f0 79 65 fb bd bc 00 86 3e 84 0e 28 bd 76 5d e8 bd
       -0.12275214 0.26172435 -0.04102947 -0.11345951

arith.constant2 f4 [64, 60]
000000 3f 19 a3 bd 0d 5d 42 3e 69 66 de bd 0b 59 52 3e
       -0.079638 0.18980809 -0.10859377 0.2054178
000010 b9 37 6a be 64 af 90 3d bf 01 1c bc 54 8a 04 3e
       -0.22872819 0.07064703 -0.009521901 0.12943393
000020 9f cd 1f 3d a4 f3 77 3d c2 26 12 be 87 93 32 be
       0.039014455 0.06053509 -0.14272597 -0.1743909
000030 ad b9 54 be ac b2 a7 bd b0 e9 02 be 93 7d db 3d
       -0.20773955 -0.08188376 -0.12784457 0.10717311
000040 ce c0 44 be 23 1e 9f bb 65 9b 4d 3e 77 ab ae 3d
       -0.19214174 -0.0048558875 0.2007881 0.08528798
000050 ab af d5 3d 3b c4 39 3e 25 ee 4d bd f0 cc fd bc
       0.10433897 0.18141262 -0.05027594 -0.03098151
000060 bf aa 6f be 32 5d 9b 3d 84 9b 4a 3e 98 b5 26 3e
       -0.23404978 0.07586135 0.19785887 0.1628021
000070 12 49 f1 bd 04 a6 b2 bd 3d 42 29 be 9d e6 74 bd
       -0.11781515 -0.08723071 -0.16529174 -0.059790242
000080 9d 80 84 bd 5f c2 45 be c1 ed 50 3d 2d bf e5 3d
       -0.064698435 -0.19312428 0.05100799 0.112181045
000090 f9 50 2b be 4e 53 97 3c f3 2f a1 3d 38 19 63 3d
       -0.16730107 0.01847234 0.07870474 0.055443972
0000a0 f0 97 e6 3c 36 26 0e 3e 6e af 95 3b aa 7a a3 bd
       0.028148621 0.13881764 0.004568032 -0.07982381
0000b0 ea a4 c3 3d ed ad f5 3d 92 3f 20 be e8 96 92 bd
       0.09552939 0.11996064 -0.1564925 -0.07157689
0000c0 81 e1 06 be 2f 58 3c bd 75 99 73 3d 47 28 fd 3d
       -0.1317196 -0.045982536 0.05947252 0.12361198
0000d0 44 26 c4 3d 10 af c4 3d d6 5e ed 3d a1 11 03 be
       0.09577611 0.09603703 0.11590354 -0.12799694
0000e0 4f 5f 0b 3e 9f fb 1a 3e b4 fe 42 3d cb 54 80 3d
       0.13610576 0.15135048 0.047606185 0.06266173
0000f0 4b 59 44 3d c6 4d ed 3d 49 7f 07 3b 41 f1 f9 3c
       0.04793672 0.115871 0.0020675233 0.030510547
000100 d9 5a 36 3d 33 56 1f 3e 1b 55 11 be e2 db 4f 3d
       0.044520233 0.15560226 -0.14192621 0.050746806
000110 65 25 76 be 24 60 52 bd 4c 76 6d 3c a1 11 2d 3e
       -0.24037702 -0.051361218 0.014493536 0.16901256
000120 ea 13 8c 3d 6f 27 04 3e 39 8e cf 3d 75 1c dc 3d
       0.06839736 0.12905668 0.10134549 0.10747615
000130 89 67 d0 bc 55 e3 45 bd 5f 9d 83 bd 5d 1d 43 be
       -0.025439994 -0.048312504 -0.064265005 -0.1905417
000140 66 97 13 bc a5 ed 36 3e 39 82 1f 3e fa ba 03 3c
       -0.009008264 0.17864092 0.1557702 0.008040184
000150 49 98 6c be f0 a4 2b be d3 84 26 be f5 31 7b bd
       -0.23104967 -0.16762137 -0.16261606 -0.06132694
000160 80 97 39 3e 56 f7 53 3e 90 30 bd 3d 75 3a 46 bd
       0.18124199 0.2069982 0.09237778 -0.048395593
000170 e1 7d 19 3e bb 1d 05 3c 0f bf 11 3b d2 95 f3 bd
       0.14989425 0.008124764 0.0022239124 -0.1189381
000180 1b fd 1a bc 0a 49 66 3d db b4 0e 3e 67 5d 0b be
       -0.009459759 0.056222 0.13936178 -0.13609849
000190 2e cf 37 bd ef 64 8a bc 66 b2 af 3d 7c a0 fc bd
       -0.044875316 -0.016893832 0.08578949 -0.123352975
0001a0 22 88 95 3d 1d 79 d5 3c d9 80 06 3d 3e cd 08 3c
       0.07301356 0.026058728 0.032837722 0.008349715
0001b0 b3 43 2a 3d be ed f2 3c 3b ad f1 3d 27 8a 64 bd
       0.04156847 0.02965438 0.11800619 -0.055795815
0001c0 20 d9 01 3e fb 0d 91 3d e9 d9 c5 3d fa bd e8 bd
       0.12680483 0.07082745 0.09660704 -0.1136436
0001d0 35 cd af 3d 8c cf f8 3d 66 4a 9a bc e7 12 b6 3d
       0.08584062 0.121489614 -0.018834304 0.08890324
0001e0 51 d7 0f bd f9 e1 25 bd a6 ef 17 3e 30 20 cd bd
       -0.03511745 -0.040498707 0.14837512 -0.10015905
0001f0 88 d9 df 3d 50 de 0f 3e c8 08 2f bd ad 89 59 bd
       0.10930163 0.14049649 -0.042732984 -0.053109813
000200 35 ae 5f be 41 04 24 3e 1d 34 14 bd 66 14 d8 3c
       -0.21843798 0.16017248 -0.03618251 0.026376914
000210 10 4d 38 bd 3d 02 41 3d ca 3b 1f be e2 66 3e bd
       -0.044995368 0.047121275 -0.15550151 -0.046484835
000220 6f bc 7d be f0 47 31 3e 1f 99 da bd 5f 35 9d 3c
       -0.24778913 0.17312598 -0.10673737 0.019190488
000230 e1 22 3c be 95 7e 1b be 3d c3 07 3e 43 c5 23 bd
       -0.1837268 -0.15185006 0.13258071 -0.039983045
000240 b9 7b 77 bc 7e 72 15 be 16 16 3a 3e 81 02 1b 3e
       -0.015105181 -0.14594457 0.18172488 0.15137674
000250 0e ac 44 3e ee aa 8b 3e d9 58 8c bd 13 4f 91 bd
       0.19206259 0.27278847 -0.06852884 -0.0709516
000260 d1 dd 1c bd b8 34 10 be 3e a1 38 bd 94 32 c7 bc
       -0.038297478 -0.1408261 -0.045075648 -0.02431611
000270 83 51 66 bc 35 91 8f bd 58 13 5b bd 32 52 27 bd
       -0.01405752 -0.07010118 -0.053485245 -0.040849872
000280 5f ae de bb 86 51 62 bd 6a e8 61 bd c9 0b aa bd
       -0.006795689 -0.055253528 -0.055153288 -0.08303029
000290 a9 a4 35 bd 70 36 88 bd 33 d4 31 bd 22 85 17 3b
       -0.044346485 -0.06651008 -0.04341526 0.0023120125
0002a0 df dd 88 bd 73 b6 21 bd a9 4a ca bb 42 f6 14 bd
       -0.066829436 -0.039480638 -0.006173451 -0.036367662
0002b0 b5 37 73 bd d1 1f 22 3c 67 6d ef 3c 93 6b 27 bd
       -0.0593793 0.009895281 0.029226972 -0.040874075
0002c0 cb d3 64 bd f7 2d 1d be ce fd 66 bc 2c bc 62 bd
       -0.055866044 -0.15349565 -0.014098598 -0.055355236
0002d0 71 a0 ff bd 81 aa a5 bd ab 98 3c bd 10 4a 07 be
       -0.12481774 -0.08089162 -0.046044033 -0.13211846
0002e0 3d 60 54 3d 50 de 44 3e 19 44 d2 bc 87 15 b8 bd
       0.051849592 0.1922543 -0.025667237 -0.08988481
0002f0 55 72 38 be 2f 77 cf 3c 22 0b 0b be 33 23 ad bd
       -0.18012364 0.025325386 -0.13578466 -0.08453979
000300 28 79 ea 3d ee 93 b5 3d b4 5b 3a 3e 76 43 13 3e
       0.1144889 0.08866106 0.18199044 0.14381203
000310 c2 78 ae 3d 65 86 92 3c 78 1a fd 3d 54 58 53 be
       0.085191265 0.01788635 0.12358564 -0.20639163
000320 17 6e bc bd 8a 8e 06 be 5f 99 33 bc 59 61 f7 bd
       -0.092006855 -0.13140312 -0.0109618595 -0.120791145
000330 1f 2c dd bd 45 19 1c 3e 1e 7f 96 bc ca c1 1e 3e
       -0.10799431 0.15244015 -0.018371161 0.15503612
000340 85 e5 30 3d ee bc 30 bd af 63 02 bd 86 30 67 bc
       0.043187637 -0.043148927 -0.031833347 -0.01411069
000350 56 c1 ee 3d c6 69 ce bd af 0c 35 be 07 26 46 be
       0.1165797 -0.100787684 -0.1768062 -0.19350444
000360 53 88 b8 3c f6 c1 af bc 76 3d 06 3d 9f e0 27 3d
       0.022525942 -0.021454792 0.032773457 0.0409857
000370 e2 cd 84 bd aa 3b 00 3b 6e 4e f4 3d bb e7 19 3d
       -0.064845815 0.0019566813 0.11929022 0.03757451
000380 62 ca 22 be 05 30 d0 bd 2b 42 1e bd 64 55 34 3c
       -0.15897515 -0.10165409 -0.03863732 0.011006687
000390 79 79 17 3d 06 b6 a0 bc 7a db 1a be 83 b4 6c be
       0.03698108 -0.019618046 -0.15122786 -0.23115735
0003a0 2d 2f 2c be 93 ea 3f 3d 05 1d 5a be e1 b5 c3 b8
       -0.16814871 0.046854567 -0.21300133 -9.332202e-05
0003b0 8c 3e 04 3d a0 32 af 3d bf 64 8b bd 24 c6 2f be
       0.03228621 0.08554578 -0.06806325 -0.17165428
0003c0 dc e1 ec bc 8c 6d 8f 3b 6d ca b6 bd f3 5c 5a bd
       -0.028916292 0.0043770727 -0.089253284 -0.0533113
0003d0 ca 32 3f 3e 52 06 3e 3d 60 a6 32 bd 2a 9f 11 3e
       0.18671718 0.046392746 -0.0436157 0.14220873
0003e0 12 cd 56 bd 0b e0 2b bd c1 92 9b 3d 7e 58 44 be
       -0.052441664 -0.04196171 0.075963505 -0.19174382
0003f0 34 33 fa bc 46 ef 53 3d e3 fb 31 3e d9 e2 18 3d
       -0.030541994 0.05174186 0.17381243 0.037325714

functional_1/dense_1_2/BiasAdd/ReadVariableOp f4 [32]
000000 c6 46 97 3c 9e 4c 06 3c be 1d e1 3c 1e ef 66 3d
       0.018466365 0.008196978 0.027480002 0.056380384
000010 9a c4 62 3c 3d 57 d4 bb c9 67 98 bc c9 f4 54 3b
       0.013840819 -0.006480126 -0.018604176 0.0032494536
000020 0e 7f 54 bc 4b 75 94 3b 76 14 66 3c fa d0 d0 3d
       -0.012969745 0.004530584 0.014042964 0.10196109
000030 04 71 1a 3c e7 77 0b bd c5 ec fe bb ef f6 28 bb
       0.009426359 -0.034049895 -0.00777969 -0.002578195
000040 4c fe 00 3c 7e 8c e9 bc 54 ca 9a 3b 73 39 bf 3c
       0.007873129 -0.028509375 0.0047238264 0.023342824
000050 95 0f c8 3c 90 e5 38 bb d9 a2 16 3d 4f ab 26 3d
       0.024421493 -0.0028213002 0.036776397 0.040690716
000060 58 ce 61 3c 40 d5 8a 3c f5 a1 4b 3c bb 33 bd bc
       0.013782106 0.016947389 0.01242875 -0.023095956
000070 2d c1 19 bd b0 7d cf 3b 3e 95 b0 bb a7 f6 67 bb
       -0.037537742 0.006332122 -0.005388885 -0.003539482

functional_1/dense_1/BiasAdd/ReadVariableOp f4 [64]
000000 2d 74 8e bd 6c e4 7e bd 64 30 01 bc a0 ad 1d bd
       -0.069557525 -0.06222956 -0.007885072 -0.03849566
000010 10 81 7a bd bc d1 8e bd c8 bb a1 bc 43 c3 c9 bc
       -0.06115824 -0.069735974 -0.019742861 -0.02462924
000020 79 1c 6a bd 16 c5 3a bd 0a 8a 24 bd bc 18 4f bd
       -0.05715606 -0.045598112 -0.040170707 -0.050560698
000030 44 8d a1 bd 25 0f 3e bd 86 58 6d bd 5b 2a 31 bd
       -0.078882724 -0.04640116 -0.05794575 -0.043253284
000040 40 5f 33 bd 5d 43 a9 bd 31 bc 3f bd 63 c4 50 bd
       -0.04379201 -0.08264802 -0.046810333 -0.05096854
000050 4a 11 34 bd db 02 8d bd 60 99 f4 bc 9b ba 61 bd
       -0.0439618 -0.0688531 -0.029858291 -0.0551096
000060 e2 05 8d bd 3e e0 80 bd fb 09 4f bd 99 b1 4c bd
       -0.06885888 -0.06292771 -0.050546627 -0.049974058
000070 be e8 7e bc 5a 20 16 bd 97 d6 c3 bd 67 73 a7 bc
       -0.01555842 -0.036651947 -0.09562414 -0.02044077
000080 03 c0 a2 bd 72 b4 7c bd b1 02 dc bc 01 f9 08 bd
       -0.079467796 -0.061695524 -0.026856752 -0.033440594
000090 be d2 43 bd ee eb 34 bd b6 8e be bc d9 7d fd bc
       -0.0478084 -0.044170313 -0.02326141 -0.030943798
0000a0 75 43 9f bd 37 d1 94 bd 7e f1 32 bd f5 70 ce bb
       -0.07776538 -0.07266467 -0.043687336 -0.0063000866
0000b0 fd e9 2d bd dc 55 5b bd 80 1a 0c bd 80 3c 6f bd
       -0.042459477 -0.05354868 -0.03420496 -0.058407307
0000c0 85 75 2c bd c0 c8 2c bd 5d 11 fb bc b8 41 b0 bd
       -0.042104263 -0.042183638 -0.030647928 -0.08606285
0000d0 bc d6 61 bd ac f1 e9 bc 1b 42 42 bd a2 0f cd bc
       -0.055136427 -0.028557621 -0.047426324 -0.025031868
0000e0 42 cf 47 bd 61 be a8 bc 4c 90 83 bd f1 1c 83 bd
       -0.04878164 -0.020598592 -0.06424007 -0.064020045
0000f0 50 9a 85 bd 05 7b 72 bd 6f e6 57 bd d2 74 67 bd
       -0.065235734 -0.05919935 -0.052709993 -0.056507893
